week11/exercise1/mnist.pt (torch, 35151 bytes, 8 tensors)

fc1.weight f4 [10, 784]
0.24919952 0.28183877 0.24326152 0.030194622 -0.0047839023 0.010153104 0.022385553 -0.012559043
0.020185709 0.011838485 -0.0097717345 0.017032512 0.018025206 -0.028179508 0.022604687 0.0023665223
0.032663394 0.022165861 -0.0070424713 0.018156469 -0.008298211 0.033335965 -0.03149029 0.033971775
-0.009909719 -0.023880938 -0.0046946798 -0.010779079 0.26372677 0.23930179 0.26707783 -0.0065828525
-0.026609741 -0.00831884 0.03128217 0.00964391 -0.018738322 -0.011317215 0.011796241 0.009168727
0.034806695 0.015739482 -0.027485557 0.0014583757 -0.022679256 -0.020853138 0.015869515 0.03121712
0.019440781 0.012346986 0.034154538 0.00056627765 0.027531814 -0.0132889915 -0.0023938604 -0.002455026
0.25597927 0.2655301 0.27425525 0.009603921 0.023359826 0.022643516 -0.020992128 -0.0013540869
0.030943848 -0.0106120985 0.022290217 -0.022858605 -0.024189727 -0.031737603 0.0078881495 0.029611291
0.01817987 0.030533882 0.019164914 0.011924222 0.025682302 -0.002831537 0.013991541 0.02758318
-0.023728363 0.0077273017 -0.026076134 -0.019715965 -0.01869174 -0.0074405894 0.020459665 0.029031385
0.03230513 -0.028488327 -0.004807818 -0.03147587 -0.0007437253 -0.07122418 -0.07473029 -0.043319263
0.063428625 0.0015441014 -0.08209231 -0.12450623 -0.016379107 0.011330947 0.07590869 0.014606398
0.031241775 -0.023758538 0.012937007 0.009938572 -0.0051827957 -0.014896732 -0.03140799 0.0017782114
0.019565955 -0.023534589 -0.010163361 -0.005328573 0.015619745 -0.03478516 -0.016382549 -0.074594826
-0.04018556 -0.012274568 0.004803755 0.114868164 0.06633636 0.060331106 -0.047278386 0.027119441
0.026549365 0.089257 0.09543964 0.022409614 -0.094101734 -0.019744473 3.944387e-06 0.10532887
0.12631682 0.07935734 0.020876104 -0.01565337 -0.007822173 -0.01862299 -0.005697546 0.029766789
0.021150867 -0.031209933 -0.09448287 -0.04052791 -0.023969982 0.021086548 0.04922396 0.1360558
0.117576726 -0.05095133 0.0710555 -0.0029760033 0.07306771 0.10977622 0.046064444 -0.10242317
0.09228415 -0.03081275 0.08152217 0.18327495 0.16043147 0.13791838 0.014350967 0.01999635
-0.0061732326 0.024449188 -0.0013088998 0.035480104 -0.0128086265 -0.046592366 -0.11248928 -0.005575354
-0.037633143 -0.17216928 0.036399413 0.1321204 0.11980112 0.08426443 0.1075251 0.1026038
0.03732447 -0.104670584 0.033616573 -0.02550807 0.08591441 0.09964465 0.10001844 0.082993746
0.17077309 0.086225614 0.006148916 -0.006048274 -0.009743699 0.025593558 -0.022279462 -0.06185343
0.0061435057 0.003562086 -0.101352006 0.09727537 0.12212584 0.06640144 0.16630632 0.021994777
0.05485251 0.020364197 0.07348033 -0.056720834 0.10801866 0.026430063 0.11969149 0.047396768
0.12332625 0.063692175 0.09261678 0.113366246 0.17045915 0.1504197 0.028030245 0.023317236
-0.013112374 -0.029801646 -0.027584488 0.029692419 0.049091857 -0.09159034 0.018182358 0.02673486
0.03294828 0.06523272 -0.056173936 -0.05864336 0.17713213 0.08748664 0.07006555 0.056255918
0.12766846 0.118449934 0.23776363 0.101531796 0.0710263 0.086919986 0.22033587 0.044642415
0.2026369 0.21588612 0.055889886 0.029027052 0.025329392 0.014625708 0.0010535333 0.05729276
00000000: 292e 7f3e 2c4d 903e 8c19 793e b65a f73c
00000010: 48c2 9cbb 3459 263c e861 b73c 72c4 4dbc
00000020: 805c a53c 34f6 413c a019 20bc c487 8b3c
00000030: 99a9 933c b6d8 e6bc 772d b93c a817 1b3b
00000040: 0dca 053d 2e95 b53c 88c4 e6bb e0bc 943c
00000050: 38f5 07bc 4b8b 083d f6fb 00bd fd25 0b3d
00000060: 605c 22bc f5a1 c3bc d4d5 99bb bc9a 30bc
00000070: 3207 873e 870b 753e 6dbe 883e f8b4 d7bb
00000080: acfc d9bc be4b 08bc bc21 003d 7e01 1e3c
00000090: 1c81 99bc d76b 39bc 0545 413c 6e38 163c
000000a0: 7791 0e3d 16f0 803c 6429 e1bc f826 bf3a
000000b0: d9c9 b9bc 33d4 aabc c900 823c 0cbb ff3c
000000c0: 4642 9f3c 034b 4a3c a1e5 0b3d 4072 143a
000000d0: 668a e13c 12ba 59bc 50e2 1cbb 80e4 20bb
000000e0: b70f 833e 90f3 873e 2f6b 8c3e c459 1d3c
000000f0: 1b5d bf3c e57e b93c aff7 abbc 9e7b b1ba
00000100: f47d fd3c 5ede 2dbc f999 b63c f841 bbbc
00000110: 8929 c6bc 4aff 01bd 4c3d 013c 6193 f23c
00000120: f3ed 943c 3122 fa3c bdff 9c3c d05d 433c
00000130: b163 d23c 4f91 39bb c73c 653c 1ff6 e13c
00000140: fc61 c2bc 4e35 fd3b 9e9d d5bc 6083 a1bc
00000150: 6c1f 99bc 30d0 f3bb 079b a73c 3ad3 ed3c
00000160: 6252 043d 5a60 e9bc e78a 9dbb d8ec 00bd
00000170: 8ff6 42ba fcdd 91bd 320c 99bd 8a6f 31bd
00000180: dee6 813d 7263 ca3a 0320 a8bd 1ffd febd
00000190: 7a2d 86bc 70a5 393c 0476 9b3d ac4f 6f3c
000001a0: c0ee ff3c 44a1 c2bc bdf5 533c 64d5 223c
000001b0: 71d4 a9bb 6c11 74bc aaa5 00bd e012 e93a
000001c0: c848 a03c 9ccb c0bc 3a84 26bc 4f9b aebb
000001d0: f5e9 7f3c e27a 0ebd b234 86bc 2cc5 98bd
000001e0: 9d99 24bd 451b 49bc d168 9d3b 0040 eb3d
000001f0: 5cdb 873d c01d 773d fba6 41bd 9729 de3c
00000200: 0e7e d93c 60cc b63d dc75 c33d 5e94 b73c
00000210: 69b8 c0bd 29bf a1bc 075a 8436 aab6 d73d
00000220: 3259 013e 1a86 a23d 5d04 ab3c 7f3b 80bc
00000230: 9228 00bc 3e8f 98bc 7bb2 babb 7bd9 f33c
00000240: 9544 ad3c f9ab ffbc 3c80 c1bd 9800 26bd
00000250: b25c c4bc b2bd ac3c 109f 493d 3652 0b3e
00000260: 11cc f03d 58b2 50bd 8c85 913d 0d09 43bb
00000270: 86a4 953d 5bd2 e03d 12ae 3c3d 3dc3 d1bd
00000280: 79ff bc3d 056b fcbc 18f5 a63d 6eac 3b3e
00000290: 2648 243e 7a3a 0d3e 5120 6b3c 63cf a33c
000002a0: d448 cabb aa49 c83c 648f abba 9653 113d
000002b0: 46db 51bc a3d7 3ebd c860 e6bd 76b1 b6bb
000002c0: 3625 1abd 254d 30be 8d17 153d 924a 073e
000002d0: 4a5a f53d d492 ac3d 1f36 dc3d f121 d23d
000002e0: 8be1 183d 885d d6bd 88b1 093d 4df6 d0bc
000002f0: e5f3 af3d 7f12 cc3d 78d6 cc3d a0f8 a93d
00000300: 24df 2e3e 0e97 b03d d97c c93b 9a30 c6bb
00000310: 09a4 1fbc 95a9 d13c 6b83 b6bc 065a 7dbd
00000320: 764f c93b e371 693b a491 cfbd 4f38 c73d
00000330: 1d1d fa3d 7afd 873d 344c 2a3e 642e b43c
00000340: 07ad 603d d1d2 a63c db7c 963d 1b54 68bd
00000350: e338 dd3d dc83 d83c d020 f53d 1d23 423d
00000360: 7992 fc3d 0b71 823d dead bd3d 902c e83d
00000370: d88c 2e3e 9f07 1a3e af9f e53c ca03 bf3c
00000380: 48d5 56bc 9522 f4bc ddf8 e1bc 843d f33c
00000390: 8b14 493d b793 bbbd 2bf3 943c 1103 db3c
000003a0: c7f4 063d bb98 853d a416 66bd 0534 70bd
000003b0: 2062 353e 322c b33d 877e 8f3d 9b6c 663d
000003c0: 85bb 023e e195 f23d 4f78 733e e7ef cf3d
000003d0: 3d76 913d 1b03 b23d ba9f 613e f7da 363d
000003e0: 0c80 4f3e 4011 5d3e cbec 643d 24ca ed3c
000003f0: 967f cf3c aaa0 6f3c b616 8a3a d0ab 6a3d

fc1.bias f4 [10]
-0.07031112 0.97566456 0.78412616 0.58082706 -0.2921362 0.4575396 0.9176065 -0.23440626
0.2586341 0.19525471
00000000: 47ff 8fbd 27c5 793f 7ebc 483f 15b1 143f
00000010: e092 95be a142 ea3e 42e8 6a3f 3208 70be
00000020: b06b 843e daf0 473e

fc2.weight f4 [10, 10]
0.40443775 0.71687424 0.4747208 0.4027475 -0.23166369 0.18215355 -0.20578909 0.52793384
0.5937141 0.2300144 -0.053906605 -0.73372436 0.40923855 0.9444105 0.29969668 0.36401328
0.17692924 0.76707524 -0.84436345 -0.54575694 0.5583213 -0.6030939 -0.84334654 0.24900554
0.3605585 0.53931695 0.4187011 -0.3907493 0.43093166 -1.0352422 0.18761429 0.48889393
0.4278873 0.33492023 0.7751516 -0.09260493 0.12831897 0.2611514 -0.794744 0.43379945
1.6081291 -0.19878809 -0.33937058 -0.21488155 0.6788266 -0.40452248 -0.46206123 0.38155994
0.22770673 0.9691868 0.21621378 -0.2074408 0.0976645 -0.15754093 -0.2816587 -0.16079693
-0.201853 -0.06555314 0.10548138 -0.24727868 -0.27842322 -0.065973595 0.1685928 -0.18681104
-0.08889603 -0.42152995 1.209799 -0.072149314 -0.14821103 0.6499164 -0.5173042 1.032192
-0.5894935 0.44758925 0.17286415 -0.0068800156 0.12757593 -0.075836726 -0.63465726 -0.7629519
0.4130002 0.20134455 0.68643457 -0.3179152 -0.11990524 0.36896178 -0.99833316 -0.26635024
0.31056687 0.46599105 -0.83770347 -0.15633912 0.6277 -0.44303736 0.9080555 0.511851
0.4333889 -1.3044745 0.1205802 -0.41148528
00000000: 7712 cf3e 1285 373f 9b0e f33e ec34 ce3e
00000010: 3f39 6dbe 7686 3a3e 60ba 52be ac26 073f
00000020: a6fd 173f e588 6b3e 2ccd 5cbd 5cd5 3bbf
00000030: b787 d13e e3c4 713f d871 993e f35f ba3e
00000040: f02c 353e 0b5f 443f 3428 58bf bab6 0bbf
00000050: 25ee 0e3f 5d64 1abf 8fe5 57bf 4ffb 7e3e
00000060: 209b b83e ad10 0a3f fe5f d63e 4b10 c8be
00000070: 13a3 dc3e d182 84bf f61d 403e 4e50 fa3e
00000080: 0b14 db3e aa7a ab3e 5670 463f a7a7 bdbd
00000090: 0c66 033e a3b5 853e 5874 4bbf f61a de3e
000000a0: 2dd7 cd3f 1b8f 4bbe fbc1 adbe e909 5cbe
000000b0: 94c7 2d3f 921d cfbe 4a93 ecbe d35b c33e
000000c0: f42b 693e a01c 783f 2567 5d3e 5c6b 54be
000000d0: 5304 c83d 6952 21be 9235 90be f3a7 24be
000000e0: 8eb2 4ebe ba40 86bd 9f06 d83d 9f36 7dbe
000000f0: 7d8d 8ebe 2a1d 87bd 97a3 2c3e 654b 3fbe
00000100: 1f0f b6bd c6d2 d7be b2da 9a3f 05c3 93bd
00000110: a2c4 17be ec60 263f 0c6e 04bf de1e 843f
00000120: 0ce9 16bf 6b2a e53e 4d03 313e c171 e1bb
00000130: 44a3 023e 4950 9bbd e678 22bf d150 43bf
00000140: c374 d33e 442d 4e3e 2dba 2f3f c8c5 a2be
00000150: e190 f5bd 8fe8 bc3e c392 7fbf 0f5f 88be
00000160: 9f02 9f3e 6196 ee3e bc73 56bf 5d17 20be
00000170: f2b0 203f cbd5 e2be 5376 683f ab08 033f
00000180: 26e5 dd3e 05f9 a6bf c0f2 f63d 33ae d2be

fc2.bias f4 [10]
-0.28064755 0.18133825 0.40355653 -0.73443985 1.2091618 0.056293264 0.6421516 0.5740659
0.41838536 0.6150324
00000000: 09b1 8fbe bcb0 393e f69e ce3e 4004 3cbf
00000010: d0c5 9a3f c493 663d 0c64 243f fcf5 123f
00000020: 9b36 d63e c372 1d3f

fc3.weight f4 [10, 10]
0.8285497 0.24360327 0.645741 0.29205903 -0.7695982 0.28771913 -0.5226983 0.2326904
0.04725544 0.41778943 0.15707761 -0.24734609 0.12123521 -0.5134841 0.2976482 -0.0047491756
-0.5076727 -0.23976979 0.0610322 0.02993094 -0.28080967 0.6823803 -0.37343925 0.67115134
0.9215155 0.18076661 -0.053002354 0.37034118 0.4159532 -0.27053636 0.4278136 -0.83776987
-0.5092778 0.036234923 -0.15063624 0.33593166 1.2811311 -0.5392171 0.1873132 0.10893722
-0.7597483 0.5365238 0.68497163 -0.9392554 -0.031831115 -0.10683892 -0.6544591 0.042722896
0.82585657 0.96515507 -0.44639444 0.78069645 0.15082012 -0.40318048 -0.18803956 0.13154162
0.67262 -0.9757714 0.04175967 0.28055057 0.21889141 0.53675133 0.82443464 0.055610947
0.017435247 -0.03306703 0.48273566 0.23171958 -0.57980835 -0.24832366 0.055975925 -0.8564345
0.17941676 0.30411017 1.5851619 -0.19755262 0.029457469 -0.11176809 -0.009910537 -0.27804697
-0.6112364 0.0983631 -0.30852732 0.071058765 0.3619808 -0.24521236 0.11970106 0.32063597
-0.7416388 1.1233476 -0.14358774 -0.26014155 0.6082496 -0.48747554 -0.4618675 -0.27618182
0.6231712 0.9770116 -0.06525734 -1.1231487
00000000: d51b 543f 2373 793e 484f 253f c388 953e
00000010: 6304 45bf ec4f 933e 8ecf 05bf 6446 6e3e
00000020: ec8e 413d 7fe8 d53e f4d8 203e 4b48 7dbe
00000030: 2a4a f83d b273 03bf 5865 983e f99e 9bbb
00000040: d7f6 01bf 3686 75be e6fc 793d bb31 f53c
00000050: 49c6 8fbe 7ab0 2e3f 6e33 bfbe 93d0 2b3f
00000060: 71e8 6b3f e21a 393e ff18 59bd 5c9d bd3e
00000070: d1f7 d43e be83 8abe 620a db3e 1678 56bf
00000080: 0860 02bf 126b 143d 6340 1abe 3cff ab3e
00000090: 1bfc a33f 220a 0abf 08cf 3f3e 7a1a df3d
000000a0: dd7e 42bf a059 093f 4d5a 2f3f 0b73 70bf
000000b0: 5861 02bd 5dce dabd a28a 27bf 34fe 2e3d
000000c0: 566b 533f 6714 773f d08d e4be b9db 473f
000000d0: 9770 1a3e ac6d cebe 718d 40be d9b2 063e
000000e0: d330 2c3f 28cc 79bf 300c 2b3d 53a4 8f3e
000000f0: 1225 603e 8968 093f 260e 533f 4ec8 633d
00000100: 5dd4 8e3c 4b71 07bd 2129 f73e e647 6d3e
00000110: 526e 14bf 8f48 7ebe 0347 653d 4b3f 5bbf
00000120: 07b9 373e 54b4 9b3e 96e6 ca3f 3c4b 4abe
00000130: ca50 f13c abe6 e4bd ce5f 22bc 2c5c 8ebe
00000140: fd79 1cbf 9872 c93d 4bf7 9dbe 4287 913d
00000150: 8c55 b93e f318 7bbe d425 f53d 662a a43e
00000160: 0adc 3dbf dbc9 8f3f aa08 13be 4631 85be
00000170: 3fb6 1b3f 6596 f9be e679 ecbe b467 8dbe
00000180: 2688 1f3f 6f1d 7a3f a4a5 85bd 56c3 8fbf

fc3.bias f4 [10]
-0.7083774 -0.32795677 0.6945752 -0.0018773797 0.38601452 -0.250344 -0.10404276 -0.28170165
0.2542017 0.7482117
00000000: 3958 35bf f3e9 a7be aecf 313f 6912 f6ba
00000010: b2a3 c53e 172d 80be 5f14 d5bd 333b 90be
00000020: ba26 823e cd8a 3f3f

fc4.weight f4 [10, 10]
0.72435725 -0.29427826 -1.2851429 -0.42019677 -0.27247384 -0.32920712 0.8904052 0.014899093
-0.25406379 0.009885603 -1.0042212 0.2255745 1.0840502 -0.563574 0.43846992 0.2720928
-1.4642833 -0.6639226 0.6112378 -0.14898168 0.3076659 -0.22206719 -0.45505273 0.6332235
1.1756227 0.06596593 -0.37948367 0.040354684 -0.3969868 0.12110361 -0.0615379 -0.31362355
-0.13394596 -0.005649705 0.31726673 0.49148408 -0.086925484 1.268723 -0.03260611 0.06954547
0.0069225086 0.08223547 -0.23876731 1.1334177 -0.4964401 -1.0001937 0.35053715 -0.05287838
0.38201976 -0.56869674 -0.30179405 0.51893425 0.85225797 -0.098157585 -0.23635553 0.077823624
0.47149307 0.37898982 -1.1302505 0.011905432 1.0049103 -0.260048 0.139886 -0.41388807
-0.48985934 0.04018765 -0.65246844 -0.23473306 -0.6049133 -0.10072042 -0.9396458 0.049126495
-0.5778992 0.38554895 0.74931794 0.2581817 0.07851771 -0.2924702 0.21208566 1.3150096
0.37693447 0.29063323 0.22604121 -0.43690494 0.038156345 0.27752686 0.20542803 0.051195502
0.51522875 -0.22125256 -0.5191215 0.2371246 -8.566401e-05 0.7085981 -0.77830875 0.39074737
0.60407686 0.13880414 0.15971175 -0.3724646
00000000: 7a6f 393f a4ab 96be 907f a4bf 0824 d7be
00000010: b181 8bbe d68d a8be 98f1 633f 531b 743c
00000020: a614 82be 39f7 213c 528a 80bf 00fd 663e
00000030: 28c2 8a3f 6346 10bf 217f e03e bf4f 8b3e
00000040: a36d bbbf d5f6 29bf 157a 1c3f a78e 18be
00000050: 6386 9d3e 9565 63be acfc e8be ef1a 223f
00000060: ce7a 963f 2519 873d af4b c2be f44a 253d
00000070: db41 cbbe 2b05 f83d 2a0f 7cbd 4493 a0be
00000080: 2129 09be 2921 b9bb c970 a23e cda3 fb3e
00000090: fd05 b2bd 8465 a23f fc8d 05bd db6d 8e3d
000000a0: 36d6 e23b 126b a83d 6b7f 74be d513 913f
000000b0: 662d febe 5906 80bf 9b79 b33e 0097 58bd
000000c0: 1898 c33e 1c96 11bf c084 9abe e0d8 043f
000000d0: 942d 5a3f d806 c9bd 2f07 72be fe61 9f3d
000000e0: 8a67 f13e f40a c23e 0cac 90bf 000f 433c
000000f0: e7a0 803f 0325 85be 473e 0f3e 23e9 d3be
00000100: d8ce fabe ce9b 243d 2c08 27bf dd5d 70be
00000110: 99db 1abf 8246 cebd a18c 70bf dd38 493d
00000120: 34f1 13bf ac66 c53e 4dd3 3f3f 6430 843e
00000130: e5cd a03d a7be 95be fc2c 593e 3c52 a83f
00000140: 8efd c03e e1cd 943e 5977 673e 01b2 dfbe
00000150: d449 1c3d 0018 8e3e ba5b 523e 60b2 513d
00000160: 08e6 033f 0890 62be 26e5 04bf cbd0 723e
00000170: 84a6 b3b8 af66 353f 3e3f 47bf 0a10 c83e
00000180: c8a4 1a3f ac22 0e3e 7a8b 233e aeb3 bebe

fc4.bias f4 [10]
-0.08260188 0.8740459 0.23075981 -0.15831248 -0.111914545 0.41461942 0.13074163 0.83257586
-1.9006793 -0.5044236
00000000: 2d2b a9bd 79c1 5f3f 4d4c 6c3e ab1c 22be
00000010: 7433 e5bd ff48 d43e 22e1 053e b123 553f
00000020: 7649 f3bf e821 01bf
